notebooks/best_model.pth (torch, 220153 bytes, 6 tensors)

net.0.weight f4 [16, 3, 3, 3]
0	0xbd7897fa	-0.06069181
1	0x3c818754	0.0158116
2	0x3dce2ad4	0.100667626
3	0xbdfa33ef	-0.12216937
4	0x3e35e256	0.17762122
5	0x3e023061	0.12713768
6	0xbe1785ad	-0.14797087
7	0xbdfa1d41	-0.12212611
8	0x3da1c12c	0.07898173
9	0xbe2cc586	-0.16872224
10	0xbc780e79	-0.015140169
11	0xbe0b93ba	-0.13630572
12	0xbe0e45ef	-0.13893865
13	0xbd91dbc3	-0.07121994
14	0xbd72ff1c	-0.059325323
15	0x3df28fb7	0.11843818
16	0x3dc18489	0.09449107
17	0x3e34cd8f	0.1765654
18	0xbadf5c27	-0.0017041013
19	0xbccbd524	-0.024881907
20	0xbd004819	-0.031318758
21	0xbe1adc1a	-0.15123025
22	0x3dab2bf3	0.08357992
23	0xbdead5bb	-0.11466547
24	0x3da24e4c	0.0792509
25	0x3d07a1aa	0.03311316
26	0x3d354e96	0.0442644
27	0xbde07c03	-0.10961153
28	0x3e472d0b	0.19450776
29	0xbe036da4	-0.12834793
30	0x3e0d1513	0.1377757
31	0x3ceccd4b	0.028906485
32	0x3c32828e	0.0108953845
33	0xb79bb054	-1.8559549e-05
34	0x3e5cfb9f	0.21580361
35	0xbc901693	-0.01758889
36	0xbc0e0c73	-0.00866996
37	0xb8ec2e90	-0.0001126203
38	0xbd888af6	-0.0666713
39	0xbe118a6e	-0.14212963
40	0xbe213032	-0.15741041
41	0x3e463bab	0.19358699
42	0xbd1ea001	-0.03872681
43	0xbe0761e5	-0.13220938
44	0xbd8be474	-0.06830683
45	0x3df42742	0.1192155
46	0xbdf607f5	-0.120132364
47	0x3c85506a	0.016273696
48	0xbe211448	-0.15730393
49	0xbcc7e46b	-0.02440091
50	0xbe20cbc4	-0.1570273
51	0x3dde2314	0.10846534
52	0xbe16f8d1	-0.14743353
53	0xbcf11fd4	-0.029434122
54	0x3e0286af	0.1274669
55	0xbd4c16a7	-0.04982629
56	0xbe3e5135	-0.18585666
57	0xbe2e84a0	-0.1704278
58	0x3d14bb09	0.036311183
59	0x3ce02d35	0.027365306
60	0xbc9ca20d	-0.01912024
61	0xbe3660f0	-0.17810416
62	0x3d8c2732	0.068434134
63	0x3e080c30	0.13285899
64	0xbd9f5f69	-0.0778187
65	0x3d9cb641	0.0765195
66	0xbcfb35cc	-0.0306653
67	0x3d04ffa5	0.032470364
68	0x3e493d45	0.19652279
69	0xbe07e0e3	-0.13269381
70	0xbc0df9d1	-0.008665518
71	0xbdca7bf7	-0.09886926
72	0xbe1d204e	-0.15344355
73	0x3e573c47	0.21019088
74	0x3e0506f0	0.12990928
75	0xbc613737	-0.013746074
76	0xbc6c6f39	-0.014430814
77	0x3da268f1	0.07930172
78	0x3e5fcb90	0.21854997
79	0x3d7cc34a	0.06170968
80	0x3dd8230e	0.10553561
81	0x3da11b15	0.078664936
82	0xbe352f1e	-0.17693755
83	0x3df3001e	0.11865257
84	0x3df9187a	0.12162872
85	0xbe533d35	-0.20628817
86	0xbe3c5b4e	-0.18394205
87	0x3deb6967	0.11494713
88	0xbe23a90d	-0.15982457
89	0xbcfb4322	-0.03067166
90	0x3e24c2a2	0.16089872
91	0x3cb448ef	0.022007434
92	0xbcac6d5d	-0.021048242
93	0x3d96f2d5	0.07370535
94	0x3e2134b5	0.15742762
95	0x3d9e7b39	0.077383466
96	0x3e32bab8	0.1745404
97	0x3c55de91	0.013053552
98	0x3e177da6	0.14794025
99	0xbdce85dc	-0.100841254
100	0xbdec5317	-0.11539286
101	0xbe1123f1	-0.14173867
102	0xbde184ba	-0.11011644
103	0x3e1ba31a	0.15198937
104	0x3c6801cb	0.014160584
105	0xbe2f2e69	-0.17107548
106	0xbd0e1df0	-0.03469652
107	0xbde7fa37	-0.113270216
108	0xbdadd3bf	-0.08487653
109	0xbc72940c	-0.014805805
110	0xbb8bbc62	-0.0042644003
111	0x3da98342	0.082769886
112	0x3c28aa3d	0.010294494
113	0x3d8dfffb	0.0693359
114	0x3e194863	0.1496902
115	0x3dd3d5f8	0.10343546
116	0xbd5e92b1	-0.054339115
117	0x3e04a690	0.12954164
118	0xbe4b5c39	-0.19859399
119	0xbe014a56	-0.12626013
120	0xbdca9c32	-0.09893073
121	0x39182de6	0.00014512948
122	0x3e53cabc	0.20682806
123	0x3dbea0e6	0.09308033
124	0x3dc5526b	0.096348606
125	0xbd419e1f	-0.047269937
126	0x3c93c664	0.018038936
127	0xbd9a59e3	-0.07536676
128	0xbe33df70	-0.17565703
129	0xbe1d756f	-0.15376829
130	0xbe2b8a37	-0.16751944
131	0x3e579606	0.21053323
132	0xbc0e5f5a	-0.008689726
133	0x3dea68c9	0.114457674
134	0xbe0f8622	-0.14016011
135	0xbc913a34	-0.017727949
136	0xbd5fe399	-0.054660413
137	0x3ce11705	0.027476797
138	0xbdeb790d	-0.11497698
139	0xbe1ef3db	-0.15522711
140	0x3df917df	0.12162756
141	0xbdaa16e2	-0.08305146
142	0xbde0632e	-0.10956417
143	0xbcef4c9f	-0.02921134
144	0xbe00b29f	-0.12568139
145	0xbdbfe644	-0.093700916
146	0x3d650273	0.05591054
147	0xbcdcd462	-0.02695674
148	0x3dccaf52	0.09994377
149	0x3d68712e	0.05674856
150	0x3d3e4cdc	0.046460018
151	0x3ddc2161	0.10748554
152	0xbdc6d9aa	-0.09709485
153	0x3e02acc5	0.12761219
154	0x3e57f4a7	0.21089421
155	0xbc509dbf	-0.012732922
156	0xbe25d76c	-0.16195458
157	0xbe1e1cde	-0.154407
158	0x3d8f1b72	0.06987657
159	0x3d766b31	0.06016082
160	0x3e13e511	0.1444285
161	0xbd2c9d24	-0.04214205
162	0xbe275cc6	-0.16343984
163	0xbdc4961c	-0.095989436
164	0xbd1673ad	-0.03673141
165	0xbd136b2c	-0.03599088
166	0x3ce2114e	0.027596142
167	0xbe43ef92	-0.19134358
168	0xbe2c9094	-0.16852027
169	0xbda3212e	-0.07965313
170	0x3e0852ca	0.13312832
171	0x3e3231b7	0.17401777
172	0x3d8d1980	0.06889629
173	0xbe49e2e0	-0.19715452
174	0x3e473518	0.19453847
175	0x3e115d03	0.14195637
176	0x3cad177d	0.021129364
177	0xbe514cf3	-0.2043951
178	0xbd810039	-0.062988706
179	0xbdf490f0	-0.11941707
180	0x3d2bd383	0.04194976
181	0x3e4d6e67	0.20061646
182	0xbdb714b8	-0.08939499
183	0xbcea5d33	-0.028608894
184	0x3e435c7e	0.19078252
185	0xbdb2eeea	-0.087369755
186	0x3de5d989	0.11223132
187	0xbe046fc4	-0.1293326
188	0x3dd165c0	0.102244854
189	0xbdb4a023	-0.08819606
190	0xbd5db86f	-0.054130968
191	0x3e1505c5	0.14552982
192	0x3c9d1f2c	0.019179903
193	0xbd9dcfca	-0.07705648
194	0xbd305fc8	-0.043060094
195	0xbd088bf7	-0.033336606
196	0xbe0d41b3	-0.13794594
197	0x3e446c3a	0.1918191
198	0x3c641784	0.013921622
199	0x3db74c83	0.0895014
200	0xbdab4936	-0.08363573
201	0xba0ed547	-0.0005448651
202	0xbe25f0f0	-0.16205192
203	0x3df25fad	0.11834655
204	0x3d995512	0.07486929
205	0xbe403894	-0.18771583
206	0xbe3d8337	-0.18507086
207	0xbd174ad3	-0.036936592
208	0x3e41d653	0.18929414
209	0x3d9fb612	0.07798399
210	0x3c7c92b0	0.015415832
211	0xbe02c64c	-0.12770957
212	0x3e2f5fdb	0.1712641
213	0x3e4ec90c	0.20193881
214	0xbe08849f	-0.13331841
215	0xbe02281b	-0.12710612
216	0x3b857730	0.004073046
217	0x3d0ed585	0.034871597
218	0x3d284fc3	0.04109169
219	0x3b7389ea	0.003716106
220	0xbe38be7f	-0.18041418
221	0x3dfa2717	0.12214487
222	0x3d5af763	0.053458583
223	0xbd02a422	-0.03189481
224	0xbd82df60	-0.06390262
225	0x3e133995	0.14377435
226	0xbe46dcca	-0.19420162
227	0xbdc8ba26	-0.0980113
228	0x3ccf02a1	0.025269808
229	0x3de27500	0.11057472
230	0xbd92a10f	-0.07159626
231	0xbe1a791d	-0.15085264
232	0x3df37da1	0.11889196
233	0xbd0c1ac8	-0.034205228
234	0xbe05ab97	-0.13053738
235	0x3e2ab8bd	0.16672035
236	0xbd6a3b4f	-0.057185467
237	0xbe0b6678	-0.13613307
238	0x3cfde020	0.03099066
239	0xbd2fa6a7	-0.04288354
240	0xbdb3d07b	-0.08779999
241	0x3deeae97	0.11654394
242	0x3c1816dc	0.009282794
243	0x3e0f13bc	0.13972372
244	0x3caad727	0.020854546
245	0x3d7d9702	0.06191159
246	0x3e099af6	0.13438019
247	0xbd31aed4	-0.04337962
248	0xbdab1981	-0.08354474
249	0xbe0061db	-0.12537329
250	0x3e14f2d7	0.14545761
251	0xbd609cbd	-0.054836977
252	0xbe0dddc2	-0.13854125
253	0xbdbc3158	-0.09189099
254	0xbdd42858	-0.103592575
255	0x3d1316fc	0.03591059

net.0.bias f4 [16]
0	0x3e19bf65	0.15014417
1	0x3e2a081b	0.16604654
2	0x3e1e20d9	0.15442218
3	0xbe2f20a9	-0.17102303
4	0xbe69b86b	-0.22824256
5	0xbe23bae2	-0.15989259
6	0xbddf237d	-0.10895441
7	0x3cd9b84d	0.02657714
8	0xbdde90c7	-0.10867458
9	0xbb32c72d	-0.0027279363
10	0x3dfe04c9	0.124032564
11	0x3df7fee6	0.12109165
12	0xbe813993	-0.25239238
13	0xbd3f6b3d	-0.04673313
14	0x3dc25647	0.09489112
15	0xbd8b959e	-0.068156466

net.3.weight f4 [32, 16, 3, 3]
0	0x3d733b0b	0.05938248
1	0xbd4237e7	-0.047416594
2	0x3bccfa2a	0.006255408
3	0x3d2b9c7d	0.041897286
4	0x3c20a00c	0.009803783
5	0xbd83ecab	-0.06441625
6	0x3dfcc608	0.12342459
7	0x3cc74bb8	0.024328098
8	0x3c5cd26a	0.013477901
9	0x3dfd7320	0.12375474
10	0x3b1980ee	0.0023422795
11	0x3dd7700a	0.10519417
12	0x3b799c98	0.0038087722
13	0xbd380fbb	-0.044936877
14	0xbc44b927	-0.012007034
15	0x3e0c196d	0.13681574
16	0x3ce6859b	0.02813988
17	0x3dd4d97a	0.10393043
18	0xbaaf5e76	-0.0013379592
19	0xbd18bd12	-0.037289687
20	0xbdc4188d	-0.09574995
21	0xbde2d9c1	-0.110766895
22	0xbe1c0dbd	-0.15239616
23	0xbe23030f	-0.15919136
24	0x3c1fbe91	0.009750024
25	0xbe2ecdbf	-0.17070673
26	0xbe0cfdd1	-0.13768698
27	0x3c3c6b70	0.0115002245
28	0xbd9dcde8	-0.07705289
29	0xbdbb7988	-0.091540396
30	0xbd1ba069	-0.037994776
31	0xbe1540a2	-0.14575437
32	0xbe2315eb	-0.1592633
33	0xbe0c3842	-0.13693336
34	0xbe238e5f	-0.15972279
35	0xbdc066d5	-0.09394614
36	0x3b833380	0.004003942
37	0x3da8596b	0.0822018
38	0x3dbb1a83	0.09135916
39	0x3bf3765c	0.007429881
40	0xbcb84dfc	-0.022498123
41	0xbc62d3bd	-0.013844428
42	0xbd66cb86	-0.05634644
43	0xbe11dfc6	-0.14245519
44	0xbd4bfcda	-0.049801685
45	0x3d9d5ab5	0.076833166
46	0xbc2a5371	-0.010395871
47	0x3da86481	0.082222946
48	0x3d3a2053	0.045440983
49	0xbdbe9992	-0.09306635
50	0x3c2a3b43	0.010390106
51	0xbd3f9e79	-0.04678199
52	0xbdc8f5c6	-0.098125026
53	0x3d22acb3	0.03971548
54	0x3dae8a70	0.085224986
55	0xbdc619fd	-0.096729256
56	0xbd6af66f	-0.057363924
57	0xbd0c1805	-0.034202594
58	0x39c58e54	0.0003768081
59	0x3d8379a2	0.06419684
60	0x3d0e061d	0.0346738
61	0xbe0a150b	-0.1348459
62	0xbc1f12d4	-0.009709079
63	0xbdce17c9	-0.100631304
64	0x3bc31516	0.0059534414
65	0xbd9290e3	-0.07156541
66	0xbd8099ad	-0.06279311
67	0xba18619a	-0.00058128836
68	0xbdbc96f8	-0.092084825
69	0xbd3cb51f	-0.046071168
70	0xbc734450	-0.01484783
71	0xbdd6c843	-0.10487416
72	0xbd4946a7	-0.049139645
73	0x3d7c01a2	0.061524995
74	0x3b8bf384	0.0042709727
75	0xbd9d17bc	-0.076705426
76	0xbd2f3088	-0.042770892
77	0x3d8d001d	0.06884787
78	0x3d398463	0.04529227
79	0x3cf8407f	0.030304192
80	0x3d9004de	0.07032178
81	0x3c03017d	0.00799596
82	0xbd8f5cfc	-0.07000157
83	0x3d93fa9a	0.07225533
84	0xbd49904f	-0.04920989
85	0xbd8d078a	-0.068862036
86	0x3afdb8e7	0.0019357473
87	0x3cae2f23	0.02126271
88	0xbd86713f	-0.06564569
89	0xbd05ec32	-0.032695957
90	0xbcc4bc77	-0.024015648
91	0xbda48f80	-0.08035183
92	0xbdbb6a6a	-0.09151156
93	0xbdfc272e	-0.123121604
94	0xbc61f8a0	-0.013792187
95	0xbde03fa7	-0.10949641
96	0xbd94f13d	-0.07272575
97	0xbd5b4727	-0.053534653
98	0xbd989ea0	-0.0745213
99	0x3ca3dd07	0.020002855
100	0x3d16afda	0.0367888
101	0x3cec5de0	0.028853357
102	0x3daf9475	0.08573238
103	0x3df11425	0.117714204
104	0x3e1af2c3	0.15131669
105	0x3db18c5e	0.08669351
106	0x3d0b4d78	0.034009427
107	0x3d840c1b	0.064476214
108	0xbd66f62d	-0.056387115
109	0xbc8b010e	-0.016968276
110	0xbd1e9b3d	-0.038722266
111	0x3d120f13	0.035658907
112	0xbdc6c924	-0.09706333
113	0xbd66a853	-0.05631287
114	0x3ce3fa47	0.027829302
115	0xbdec74b4	-0.11545697
116	0xbd52126d	-0.051287103
117	0xbac1eb52	-0.0014794862
118	0xbc3fda7a	-0.011709804
119	0xbd8687df	-0.06568884
120	0x3cf99128	0.030464724
121	0xbe009ca4	-0.12559754
122	0xbd9dc09b	-0.07702752
123	0x3d43c1d1	0.04779226
124	0xbd8644df	-0.06556105
125	0xbda51289	-0.08060176
126	0xbdaeaddd	-0.085292555
127	0xbe617e94	-0.22020942
128	0xbc206acb	-0.009791086
129	0x3c857326	0.016290259
130	0xbe063e32	-0.13109663
131	0xbe863b92	-0.26217324
132	0xbda2477c	-0.07923791
133	0xbe22b1b9	-0.15888108
134	0xbe52bb5f	-0.20579289
135	0x3d146984	0.03623344
136	0xbd79653f	-0.06088757
137	0x3dcf1339	0.10111088
138	0x3b2fab62	0.0026805033
139	0xbd3cdb32	-0.04610748
140	0xbe0f9d09	-0.14024748
141	0x3d01b3b5	0.031665523
142	0xbe4192ad	-0.18903609
143	0x39a02600	0.0003054589
144	0x3d312788	0.04325059
145	0x3d39f1d9	0.04539666
146	0x3dad640f	0.0846635
147	0x3dba6e8d	0.09103117
148	0xbcf42ed3	-0.029807484
149	0x3d15c639	0.036565993
150	0xbd7e312a	-0.062058605
151	0xbca15e8c	-0.019698404
152	0x3d7a2a3f	0.061075445
153	0x3d05d519	0.03267393
154	0x3cdf9c58	0.02729623
155	0x3d541d44	0.051785722
156	0x3dac9011	0.08425916
157	0x3d6df005	0.05809023
158	0x3daf6232	0.08563651
159	0x3d9a1687	0.07523828
160	0x3d816a2b	0.06319078
161	0x3d82e434	0.063911825
162	0xbb91e74b	-0.004452621
163	0xbd999a45	-0.07500128
164	0xbd9a1c9d	-0.07524989
165	0xbc421a43	-0.011847082
166	0xbde04b8c	-0.109519094
167	0x3c8b2635	0.016985992
168	0xbe0f1404	-0.13972479
169	0xbe0a7852	-0.13522461
170	0xbd3b6848	-0.045753747
171	0x3bf6d980	0.0075332522
172	0xbd247868	-0.04015389
173	0x3cb3f939	0.021969425
174	0xbe018936	-0.12649998
175	0xbe27512c	-0.16339558
176	0xbd0b7927	-0.034051087
177	0xbe28b84a	-0.1647655
178	0xbd8cb69c	-0.068707675
179	0xbe0848ef	-0.13309072
180	0xbe1fcf98	-0.15606534
181	0xbd440c8a	-0.04786352
182	0xbe2e8613	-0.17043333
183	0xbe221be4	-0.15830952
184	0xbdc31690	-0.09525788
185	0xbd4aeb72	-0.049540944
186	0xbdffe296	-0.1249439
187	0xbd1e6336	-0.038668834
188	0xbdf0435c	-0.11731598
189	0x3bddd061	0.0067692255
190	0xbda82064	-0.08209303
191	0xbd9e7700	-0.07737541
192	0xbd9f7049	-0.077850886
193	0x3c91bbe6	0.017789792
194	0xbc9d0b11	-0.019170316
195	0x3b98f2a2	0.004667596
196	0xbd29bf8e	-0.041442446
197	0xbd302c92	-0.043011256
198	0x3c8f918d	0.017525459
199	0xbd418d7d	-0.047254074
200	0xbdb94d88	-0.09047991
201	0xbdc40483	-0.09571173
202	0xbb1fe504	-0.0024397979
203	0x3c05b6ed	0.008161289
204	0xbcd5f72a	-0.026118834
205	0xbe23388f	-0.15939544
206	0xbdd670d8	-0.10470742
207	0xbd3ac819	-0.045600984
208	0x3a3a4355	0.000710537
209	0x3cb7a374	0.022416808
210	0xbdc42522	-0.09577395
211	0xbcabe103	-0.020981317
212	0xbd44486a	-0.047920622
213	0xbc847ef5	-0.01617382
214	0xbdcfb0e6	-0.101411626
215	0xbdcfe32b	-0.10150751
216	0x3cfce480	0.030870676
217	0xbdc3ad78	-0.09554571
218	0x3d72dea3	0.059294354
219	0xbd37e640	-0.044897318
220	0xbbe2bd1e	-0.006919517
221	0xbdecec88	-0.11568552
222	0xb96bcc40	-0.00022487435
223	0xbc7b1882	-0.015325667
224	0xbca3431f	-0.019929467
225	0xbe043868	-0.12912142
226	0xbdad7cdb	-0.0847108
227	0xbe284b61	-0.16435005
228	0xbe23765c	-0.1596312
229	0xbe26ace5	-0.16276892
230	0xbd5356dd	-0.05159651
231	0xbdbd6653	-0.092480324
232	0xbdfc2c90	-0.12313187
233	0xbdd734a9	-0.10508091
234	0x3cbaa5b7	0.022784097
235	0x3d191d4e	0.037381463
236	0x3dbea952	0.09309639
237	0x3d86b80b	0.06578072
238	0x3cc84ae4	0.024449773
239	0xbc33e99b	-0.010980989
240	0xbb909e40	-0.004413396
241	0xbcbe0f68	-0.023200706
242	0x3d7a4b57	0.061107006
243	0xbd3d15f4	-0.046163514
244	0xbd0dc7ac	-0.03461425
245	0x3dcec557	0.10096233
246	0x3da1fde5	0.07909755
247	0xbd525058	-0.051346153
248	0x3d99dc89	0.07512767
249	0x3d8d09d6	0.06886642
250	0xbd44a963	-0.048013102
251	0x3cc333f7	0.02382849
252	0xbdcddfe7	-0.100524716
253	0xbe3bfd76	-0.18358406
254	0xbe340516	-0.17580065
255	0xbcf01bb1	-0.02931008

net.3.bias f4 [32]
0	0x3aae676a	0.0013305966
1	0x3e0c1202	0.13678744
2	0x3d8dd8ad	0.06926093
3	0x3d438b9d	0.047740567
4	0x3c5e8cb0	0.013583347
5	0x3d2c5f38	0.042082995
6	0x3ccc4be5	0.024938533
7	0xbda9f5bc	-0.08298823
8	0xbda315f3	-0.07963171
9	0xbc2b500b	-0.010456095
10	0xbc617322	-0.01376036
11	0xbd9516e0	-0.07279754
12	0x3b93c604	0.0045096893
13	0x3cf271d6	0.029595297
14	0xbcb6ae94	-0.022300042
15	0xbd45e417	-0.048313227
16	0xbd27003d	-0.04077171
17	0xbdce7b6b	-0.10082134
18	0xbda6265f	-0.081127875
19	0xbb383cfc	-0.0028112521
20	0xbcd60995	-0.026127616
21	0xbdc5c599	-0.096568294
22	0x3d2417a6	0.040061615
23	0x3ca6fdf7	0.020384772
24	0xbdda7267	-0.10666352
25	0xbdc93216	-0.09824006
26	0xbb8953e7	-0.00419091
27	0x3b99cdb9	0.0046937135
28	0xbdaef3aa	-0.08542569
29	0xbd3b3244	-0.045702234
30	0x3d2301ae	0.039796524
31	0x3cc42075	0.023941258

net.7.weight f4 [6, 8192]
0	0x3d108b5b	0.03528915
1	0x3c59cb3d	0.013293085
2	0x3c907c99	0.017637538
3	0x3c16079b	0.009157087
4	0xbd22198f	-0.039575156
5	0xbc009912	-0.007848995
6	0xbd14d1ae	-0.03633278
7	0x38ff1fdc	0.00012165282
8	0x3bd09448	0.0063653328
9	0xbcc1de41	-0.02366555
10	0xbd3c76c9	-0.04601172
11	0xbd72aed1	-0.05924875
12	0xbd290711	-0.041266505
13	0xbd27978d	-0.040916014
14	0xbcaa4f07	-0.020789636
15	0xbb8f696d	-0.0043765814
16	0x3c5183a9	0.012787738
17	0xbcf20830	-0.02954492
18	0xbd9b098b	-0.075701796
19	0xbd97a760	-0.07404971
20	0xbd89547a	-0.06705566
21	0xbd040691	-0.032232825
22	0x3cf2f20a	0.029656429
23	0x3d34f72c	0.044181034
24	0x3c7b22dc	0.015328135
25	0x3c5a8ae3	0.013338777
26	0xbd526919	-0.05136976
27	0xbda18c4f	-0.0788809
28	0xbdc33ae9	-0.095327206
29	0xbd4b2c3e	-0.04960274
30	0xbcbd35dc	-0.023096971
31	0xbc0916ea	-0.00836728
32	0x3c04d4fe	0.008107422
33	0xbd1a76f7	-0.03771111
34	0xbd8b9dee	-0.06817232
35	0xbd2a5fbe	-0.041595213
36	0x3cf7ab11	0.030232938
37	0x3d10c664	0.03534545
38	0x3d7bc0c6	0.06146314
39	0x3d997d97	0.074946575
40	0x3d2f50e6	0.04280176
41	0x3dbbc2c3	0.09168007
42	0x3d9752ad	0.07388816
43	0xbcff7994	-0.031185903
44	0xbdc659ab	-0.096850716
45	0xbd980f89	-0.07424838
46	0xbd5c47a5	-0.053779263
47	0xbd1f9c7c	-0.038967595
48	0x3c8b894c	0.017033242
49	0xbac5d867	-0.00150944
50	0xbcb5ca46	-0.022191178
51	0x3d352559	0.04422507
52	0x3db203d1	0.08692134
53	0x3dfaa01e	0.12237571
54	0x3d9932eb	0.07480415
55	0x3d171685	0.03688671
56	0x3d34c70a	0.04413513
57	0x3dd8ae4a	0.10580118
58	0x3dbddac3	0.09270241
59	0x3d247f4d	0.040160466
60	0xbcf5ab72	-0.029988978
61	0xbd252675	-0.04031988
62	0xbd045497	-0.032307234
63	0xbd06e69e	-0.032934777
64	0x3b45a0a1	0.0030155557
65	0x3a7bc6d4	0.0009604518
66	0x3afa3ef6	0.001909225
67	0xbcef94f9	-0.02924584
68	0xbba0b762	-0.0049046734
69	0x3d55a68a	0.052160777
70	0x3d1579a4	0.03649296
71	0xbc1c969f	-0.009557395
72	0xbca7aecd	-0.020469094
73	0x398667c2	0.00025635777
74	0x3d70e34d	0.05881052
75	0xbb8ba44c	-0.004261529
76	0xbd52e3e9	-0.051486883
77	0xbcf0e6a0	-0.029406846
78	0x3d69b342	0.05705572
79	0xbbeb6481	-0.007183612
80	0xbc738f06	-0.014865642
81	0xbcf7258e	-0.030169275
82	0xbd2d7480	-0.04234743
83	0xbd2da4be	-0.04239344
84	0x3c8daaf6	0.017293435
85	0x3d5e8eac	0.05433528
86	0x3bdf40fe	0.0068131676
87	0xbd2eafaa	-0.042647995
88	0xbd271b94	-0.040797785
89	0x3bacff80	0.0052794814
90	0x3d13ff68	0.036132246
91	0xbd83b42f	-0.06430852
92	0x3c3ce152	0.01152833
93	0xbd1d0234	-0.03833218
94	0x3ceed22a	0.029152948
95	0x3c2873fa	0.010281557
96	0x3cb122ad	0.02162298
97	0xbd7a0eaa	-0.06104914
98	0xbd5cf998	-0.05394897
99	0xbcdb0d92	-0.02673987
100	0x3c1e5337	0.009663395
101	0x3ccff51b	0.02538543
102	0x3afab2db	0.0019126789
103	0x3c9a998b	0.018872043
104	0x3d20e478	0.039280385
105	0xbb247019	-0.002509123
106	0x3cb59edb	0.022170475
107	0xbd827c06	-0.06371312
108	0x3c10ec72	0.008845435
109	0xbd177dbb	-0.03698514
110	0x3c8cb261	0.017174901
111	0x3d41aab6	0.047281943
112	0x3da8ae6d	0.08236394
113	0xbd3d2f18	-0.04618749
114	0xbd18940a	-0.037250556
115	0x3a461449	0.00075561233
116	0xbc07a1e2	-0.008278342
117	0x3d81163f	0.06303071
118	0x3d3b7d2e	0.045773678
119	0x3d533dcb	0.051572602
120	0x3d633410	0.055469573
121	0x3dafcfae	0.08584534
122	0x3d90c705	0.0706921
123	0x3c1e5b98	0.009665392
124	0x3d27cc76	0.040966474
125	0xbca31af7	-0.019910319
126	0xbb8f570e	-0.0043743914
127	0x3dab5e0d	0.08367548
128	0x3d60df60	0.054900527
129	0xbd428952	-0.04749424
130	0x3bc6c47f	0.0060659046
131	0x3d15dfd6	0.03659042
132	0x3cbd1680	0.023082018
133	0x3d8f5a6d	0.06999669
134	0xbbdcdf2f	-0.0067404727
135	0xbbb5a8a4	-0.005543785
136	0x3d26939a	0.040668108
137	0x3d4b63f0	0.049655855
138	0x3d784f87	0.06062272
139	0x3d94d507	0.07267194
140	0x3d65fff6	0.056152306
141	0x3b84e634	0.0040557627
142	0x3d927629	0.071514435
143	0x3de12e49	0.10995156
144	0x3d32c637	0.043646064
145	0xbc511565	-0.0127614485
146	0xbbe4cfb2	-0.006982767
147	0x3cdbfaf6	0.026853066
148	0x3dab2739	0.083570905
149	0x3ca5d359	0.02024238
150	0xbd2ad70e	-0.041709
151	0xbd2ed4d6	-0.042683445
152	0xbd1c609b	-0.038178068
153	0x3c362ce1	0.011119098
154	0x3d7f0c53	0.062267613
155	0x3dbaefda	0.09127779
156	0x3c9ed3d2	0.019388113
157	0x3d1641a6	0.0366837
158	0x3d54ddf1	0.051969472
159	0x3dc7af0e	0.09750186
160	0x3d409973	0.04702134
161	0x3c86f04c	0.016472004
162	0xbcf89a2b	-0.03034695
163	0x3c90cf72	0.017677043
164	0x3dd6ad74	0.10482302
165	0x3d15d5cc	0.036580846
166	0xbc7ca3ae	-0.015419884
167	0xbd926a98	-0.071492374
168	0xbdd7f1fc	-0.10544202
169	0xbc0b411d	-0.008499411
170	0xbcb7500d	-0.022377038
171	0x3d0d018f	0.034425315
172	0x3c94cffd	0.018165583
173	0x3d0ff433	0.035144996
174	0x3d392a3e	0.0452063
175	0x3d9e75e9	0.07737333
176	0x3db050e0	0.08609176
177	0x3d12c31b	0.0358306
178	0x3b301364	0.0026867026
179	0x3d4a611f	0.04940903
180	0x3db1930d	0.08670626
181	0x3a4de4f9	0.0007854249
182	0x3d1c7c7f	0.038204666
183	0xbd332ae7	-0.043742087
184	0xbd7770e4	-0.060410395
185	0xbc5f2008	-0.013618477
186	0xbd57bb8e	-0.0526691
187	0x3cab75ec	0.020930253
188	0x3c155a89	0.009115824
189	0x3d5c406f	0.053772386
190	0x3da7b7d1	0.08189357
191	0x3db85214	0.0900003
192	0x3dab5487	0.08365732
193	0x3cadb6db	0.021205356
194	0x3cb14135	0.021637538
195	0x3da5e72e	0.08100735
196	0x3d774da0	0.060376763
197	0x3ce1dc01	0.027570726
198	0xbc9be668	-0.019030765
199	0xbcc2673c	-0.023730867
200	0xbd55555d	-0.052083362
201	0xbc0946ec	-0.0083787255
202	0xbc9b3595	-0.018946448
203	0x3c11066c	0.008851629
204	0x3c8f1b5a	0.017469097
205	0x3d1a1f7a	0.037627675
206	0x3dfa16fe	0.12211417
207	0x3dfebec5	0.1243873
208	0x3dd796ab	0.105267845
209	0x3d796350	0.060885727
210	0x3d0d2bf6	0.034465753
211	0xbae0df75	-0.0017156439
212	0x3b3ff872	0.0029292372
213	0xbc97cb7c	-0.018529646
214	0xbc3e5941	-0.0116179595
215	0xbd8c030f	-0.06836521
216	0xbd52755a	-0.051381446
217	0xbd61cbe0	-0.05512607
218	0xbba56313	-0.005047211
219	0x3b80dc63	0.003932522
220	0x3d8a770c	0.06760988
221	0x3d910509	0.070810385
222	0x3ddbf71c	0.10740492
223	0x3d893303	0.06699183
224	0x3d8e2e92	0.06942476
225	0xbc558330	-0.013031766
226	0x3d5416f7	0.051779713
227	0x3d89151a	0.06693478
228	0x3d114b86	0.035472415
229	0x3cd2ed05	0.025747785
230	0x3c29892b	0.010347645
231	0xbd3c3a31	-0.045953933
232	0xbd72e385	-0.05929901
233	0xbcfed915	-0.031109372
234	0xbc349276	-0.011021247
235	0x3d8ec544	0.06971219
236	0x3e0168f0	0.12637687
237	0x3dc7e039	0.09759564
238	0x3d913037	0.070892744
239	0x3ca7bf29	0.020476894
240	0x3bb73714	0.0055912826
241	0x3cf33539	0.029688464
242	0x3d0fc129	0.03509632
243	0x3d92c835	0.07167093
244	0xbb81c506	-0.0039602546
245	0x3b96ea88	0.004605595
246	0xbcc9bc14	-0.024625815
247	0xbc2fd2b0	-0.010731384
248	0xbda4a2b9	-0.080388494
249	0x3cbd862c	0.023135267
250	0x3e108086	0.14111528
251	0x3e439855	0.19101079
252	0x3e1e9dac	0.15489835
253	0x3dd9af7e	0.106291756
254	0x3db2d8b5	0.0873274
255	0x3d08eba7	0.03342786

net.7.bias f4 [6]
0	0xbd804ccc	-0.06264648
1	0x3cf62b27	0.030049874
2	0xbcbe1806	-0.023204815
3	0x3cd8cd18	0.026464984
4	0x3d5e9528	0.054341465
5	0x391627d4	0.00014319952
